Using TensorFlow backend.
preparing images
Samples: 4304
Training samples: 3012
Validation samples: 861
Testing samples: 431
_________________________________________________________________
Layer (type)                 Output Shape              Param #
=================================================================
lambda_1 (Lambda)            (None, 600, 800, 3)       0
_________________________________________________________________
conv2d_1 (Conv2D)            (None, 596, 796, 8)       608
_________________________________________________________________
activation_1 (Activation)    (None, 596, 796, 8)       0
_________________________________________________________________
max_pooling2d_1 (MaxPooling2 (None, 298, 398, 8)       0
_________________________________________________________________
conv2d_2 (Conv2D)            (None, 294, 394, 12)      2412
_________________________________________________________________
activation_2 (Activation)    (None, 294, 394, 12)      0
_________________________________________________________________
max_pooling2d_2 (MaxPooling2 (None, 147, 197, 12)      0
_________________________________________________________________
conv2d_3 (Conv2D)            (None, 143, 193, 18)      5418
_________________________________________________________________
activation_3 (Activation)    (None, 143, 193, 18)      0
_________________________________________________________________
max_pooling2d_3 (MaxPooling2 (None, 71, 96, 18)        0
_________________________________________________________________
conv2d_4 (Conv2D)            (None, 69, 94, 24)        3912
_________________________________________________________________
activation_4 (Activation)    (None, 69, 94, 24)        0
_________________________________________________________________
max_pooling2d_4 (MaxPooling2 (None, 34, 47, 24)        0
_________________________________________________________________
conv2d_5 (Conv2D)            (None, 32, 45, 28)        6076
_________________________________________________________________
activation_5 (Activation)    (None, 32, 45, 28)        0
_________________________________________________________________
max_pooling2d_5 (MaxPooling2 (None, 16, 22, 28)        0
_________________________________________________________________
dropout_1 (Dropout)          (None, 16, 22, 28)        0
_________________________________________________________________
flatten_1 (Flatten)          (None, 9856)              0
_________________________________________________________________
dense_1 (Dense)              (None, 300)               2957100
_________________________________________________________________
activation_6 (Activation)    (None, 300)               0
_________________________________________________________________
dense_2 (Dense)              (None, 75)                22575
_________________________________________________________________
activation_7 (Activation)    (None, 75)                0
_________________________________________________________________
dense_3 (Dense)              (None, 50)                3800
_________________________________________________________________
activation_8 (Activation)    (None, 50)                0
_________________________________________________________________
dense_4 (Dense)              (None, 15)                765
_________________________________________________________________
activation_9 (Activation)    (None, 15)                0
_________________________________________________________________
dense_5 (Dense)              (None, 3)                 48
=================================================================
Total params: 3,002,714
Trainable params: 3,002,714
Non-trainable params: 0
_________________________________________________________________
None
Epoch 1/10
2020-06-13 20:24:04.404729: W tensorflow/core/platform/cpu_feature_guard.cc:45] The TensorFlow library wasn't compiled to use SSE4.1 instructions, but these are available on your machine and could speed up CPU computations.
…
